Assignment02/model_v0.pt (torch, 815833 bytes, 8 tensors)

input.weight f4 [512, 9]
00000000: ca05 57be 3bc8 fa3d ebba 90be f254 8abe
00000010: 8875 77bd efd9 a6bd 90ad e83d cf17 97be
00000020: d193 97be a242 42be b0fb b5bd bf34 ce3d
00000030: f189 b0be 7b5e c9bd 77ae 63be 57f8 87be
00000040: 4301 af3d 51e5 713e 7712 4fbc de75 863e
00000050: 34c8 9bbe 66b7 3dbd 91f6 d03d 7366 343e
00000060: 0103 673e aaae 463e 103d 94be 4ea7 26be
00000070: f617 1cbd f67a 9bbe 12b9 55bc fc28 00be
00000080: 4296 0c3e aa8a 453e c28e 543e d531 74be
00000090: bd49 80be a6f8 073e 0a09 13be 414b 39be
000000a0: c29d 39be dd90 fbbd 4c2d d5bc 0661 883d
000000b0: a921 903e 8041 07bd abfc 743c 4e8e 9ebe
000000c0: beaa 063d 69cd 823e 2374 953e 45fd 7f3e
000000d0: d900 443e fe64 543d e1a3 573e 16b1 a2bc
000000e0: 1b96 6fbe 246c 56be 08ce 00be 4bf9 84be
000000f0: b61d acbe f79b 55be 2629 513e 7587 89be
00000100: 565d c1bb a882 4c3e e276 8e3e 8eb8 a7be
00000110: 6261 8c3e c6d4 e43c c304 323e cae0 2cbd
00000120: e0ff 2b3e 58b3 693e 330c 9b3e 4227 fcbd
00000130: c14f 89be 753e 413d a5fd 173d e8d1 81be
00000140: c833 0ebe 881f 163e 5fec a2be 8f1a d6bc
00000150: 591a 933d 7b4b a03e 27d0 9abe b85e bb3c
00000160: 8de1 273e f8cb 01be 0cba f83c 9aca 933e
00000170: dc33 343d 5ec1 19be 7dea 10be 8832 a33e
00000180: 29be 5b3e 9e86 29be 5e7d afbe 410b d33d
00000190: 1f8c 9c3e cd25 48be 1499 7f3e 87db a9be
000001a0: edc1 1fbe 041b bbbd 7cb6 c7bc 34ad 963d
000001b0: 9154 7abe d60a 30bd 7b18 963d 7089 873d
000001c0: 02a6 4b3d e4f2 b43d 9e21 99bd 3a1c 743e
000001d0: 62f2 8bbd db8c 96bc d0f0 ad3d f816 993e
000001e0: 9285 0ebd ae5a 7dbe 4ff5 b53d 5fe3 6fbd
000001f0: e197 71be 16a9 853d 447f 9fbe 5669 d53a
00000200: f4d9 acbe d6bd 203d 5320 9cbe b293 22be
00000210: 566f 85be e170 8abc 2325 b5be 0d15 9d3d
00000220: 6bd2 75be f0be b13e c495 b43d 0ebe f6bd
00000230: 0272 153e 03ae a43b bce8 77bd b6f8 f1bd
00000240: a4db 25bd ab5d 65be f998 97bd 6795 123d
00000250: d638 c0bd 4b16 59be 1d96 9cbe 64a6 95be
00000260: 1bdc 23be feb7 c4bd 3be9 e03d 65ca 4f3e
00000270: 69c7 7bbe 1890 973e 8a20 2bbe b1ae 053e
00000280: d5cb 64be dcf3 b4bd 0594 2a3e 40a6 90bd
00000290: 40c6 5bbe e3c3 403e 5b1a 1ebc 924c 93bd
000002a0: 30cf 7f3e b7bf 9dbe 0136 2ebd 29b3 5d3e
000002b0: eb41 e8bc 7921 9fbc 36be 1fbd 2e94 9ebd
000002c0: 9fac ffbc 6112 38be f587 51be 55cf 75be
000002d0: aeb7 993e 5623 86bc a67c 103d 3722 93be
000002e0: f689 233e ccdd 5dbe 39f6 c83d d499 373c
000002f0: f87a 803e bee0 ba3d 2ecc 6e3e 67a7 b6bd
00000300: 8094 8c3e ccd4 183e 98d1 673d 74cd 813e
00000310: ba3b 353e 8193 debd 8845 e93d a732 8f3e
00000320: a08b 6bbd f49b 0a3e eed7 6fbd f7b6 93be
00000330: a211 7abe 14bb 863e 888c 5bbe d7f5 17be
00000340: 731f 75be ba00 063e 15fb 13be 5815 943e
00000350: 15dd 67bd 1cd2 4dbe ed1a a13e 5e2a c13e
00000360: 0ed7 593e 70e2 453e 2ad9 1f3e e59d 593e
00000370: 3a6d 0dbe f20b 083e f0fe 84be 1e08 11be
00000380: d182 b13e 89fd a03e 1ee7 133e 9cba 0abe
00000390: 8af3 a03d d290 293d 6a36 4e3e 1cf8 abbe
000003a0: 8ce2 29be 14d5 58be b03e 073d eb14 a9be
000003b0: 5aec 243e 4056 95b7 87ef 54be c7b4 213e
000003c0: 30d7 c33d 5c36 b4bb 014d 3dbe 3ebc 29be
000003d0: 3066 bebd 55b2 83bd 41fb e23d c976 3a3d
000003e0: 0536 1b3e 1118 9dbe 40fb 313e f977 593e
000003f0: 0668 b7bd c6ce a93e 5b55 d3bd a2c5 02be
-0.20998302 0.12245222 -0.28267607 -0.27017933 -0.06041482 -0.08147036 0.113612294 -0.29510352
-0.29604962 -0.18970731 -0.08885896 0.10068654 -0.3448024 -0.09832474 -0.22234522 -0.26556656
0.085451625 0.23622634 -0.01263868 0.262618 -0.3042618 -0.04631748 0.10203279 0.17617206
0.2255974 0.19402567 -0.28952837 -0.16274759 -0.03810879 -0.3036725 -0.0130446125 -0.12515634
0.13729194 0.19291177 0.20757583 -0.23847134 -0.25056258 0.13278446 -0.14358917 -0.18095113
-0.18126586 -0.1228349 -0.026022576 0.06659131 0.2815068 -0.03302145 0.014952819 -0.30967945
0.032877676 0.2554734 0.29190168 0.24998958 0.19140948 0.051854126 0.21058609 -0.019859832
-0.23397104 -0.2093969 -0.12578595 -0.25971445 -0.33616418 -0.20860277 0.20425853 -0.26861158
-0.005901019 0.19971716 0.27825075 -0.32757992 0.27418047 0.02793349 0.17384629 -0.042206563
0.16796827 0.2282232 0.30282745 -0.12312175 -0.2681866 0.047178704 0.03710713 -0.25355458
-0.1388694 0.14660466 -0.31820962 -0.026135711 0.0718276 0.31307587 -0.30236933 0.022872314
0.16394635 -0.12675464 0.030362152 0.2886551 0.04399477 -0.1501517 -0.1415195 0.3187449
0.21459259 -0.16555259 -0.34275335 0.10304881 0.30575654 -0.1954567 0.24960738 -0.331753
-0.1560132 -0.09136012 -0.024379008 0.073572546 -0.24446322 -0.042979084 0.07328888 0.06618011
0.049718864 0.0883539 -0.07477115 0.23838893 -0.0683334 -0.018377712 0.08493197 0.29900336
-0.03479535 -0.24741623 0.088846795 -0.058566447 -0.23593093 0.06526391 -0.31151783 0.0016282003
-0.33760035 0.03924354 -0.3049341 -0.15876654 -0.26061505 -0.016899528 -0.35379896 0.07670031
-0.2400605 0.34715986 0.08817628 -0.12047969 0.14594272 0.0050256266 -0.060524687 -0.11815016
-0.04049267 -0.22399013 -0.07402224 0.035787012 -0.093858406 -0.2119991 -0.30583277 -0.29228508
-0.16001932 -0.09605406 0.10981985 0.20292051 -0.24587788 0.29602122 -0.16711631 0.1305492
-0.22343381 -0.08835575 0.16658027 -0.0706296 -0.21462345 0.18824725 -0.009649838 -0.07192339
0.2498138 -0.3081033 -0.04253197 0.21650375 -0.028351745 -0.01942514 -0.03899976 -0.07743107
-0.031210242 -0.17975761 -0.2046202 -0.24004872 0.3002295 -0.016374271 0.035275124 -0.2873704
0.15970597 -0.2166664 0.09812588 0.011206109 0.25093818 0.091248974 0.23320076 -0.08918648
0.27457047 0.14924926 0.05659637 0.2535206 0.17698565 -0.10867978 0.11390215 0.27968332
-0.057506204 0.13536054 -0.058555536 -0.2885053 -0.24420789 0.26314604 -0.21440327 -0.14839874
-0.23937778 0.13086215 -0.14451249 0.28922534 -0.056607325 -0.20099682 0.31465855 0.37727636
0.21273443 0.1932466 0.15610185 0.21251638 -0.13811198 0.13285807 -0.25975752 -0.14163253
0.34670117 0.31443432 0.14443633 -0.13547748 0.078589514 0.041397877 0.20137945 -0.3358773
-0.16590327 -0.21175033 0.033018768 -0.33023772 0.16105786 -1.7802347e-05 -0.20794497 0.15791617
0.09562528 -0.005499644 -0.18486406 -0.16575715 -0.092968345 -0.064304985 0.11083079 0.04552344
0.15157326 -0.30682424 0.17381 0.21237172 -0.08955388 0.33165568 -0.10319015 -0.12770703

input.bias f4 [512]
00000000: ed2f 833e be3e 243e a5c8 36be 8066 2fbe
00000010: 749f 943d 888a 113e 2153 40be 2586 493e
00000020: 37b8 b7bd 61c6 733e 85c3 bb3c b926 983e
00000030: d31d 7ebe a2c7 7c3e 19bf 843e 9f77 ae3e
00000040: e4a2 a33e e34d 95be 6d5e 95be 859c 55be
00000050: ac97 68bd 743a b7bd fe76 11be 5faf 24be
00000060: 78e0 263e 9bf4 483e 0e90 31be f48a af3d
00000070: 2f7a 32be a26c 1e3d a0a7 2bbe 0d71 fbbc
00000080: ec35 cb3d 491e 273d 554c 9dbe 7545 5a3e
00000090: f7ca 113e 5896 3cbe 1bca 883e cd5c 4f3d
000000a0: fd05 92be c0ca 69be dc47 ec3d db14 893e
000000b0: 98d0 5f3e ddc2 153e 3ac5 2abe 0380 afbe
000000c0: a27c 8bbe da31 883c 1603 e13d 15ad 2dbe
000000d0: 6765 053e 4b4f 42be bd0d 3e3e 31a2 94bd
000000e0: 92d6 60be b514 01be bed3 003b 4e50 3ebe
000000f0: 40b5 2bbe 2b76 973e 53c3 0cbe 8863 213e
00000100: 3a6b a5bc 0696 553e 647d 3d3e 3576 67be
00000110: 07e3 9ebe 6f5e 023e 8c23 9b3e 05ef 5ebe
00000120: 8cde 6d3b cce6 20be f0fa 3c3e b2cc 313e
00000130: 6faf 643a 3c7a 8a3e f409 94be 8a05 14bd
00000140: b43f 873d 48ae 323e 67e8 ffba 8860 f93c
00000150: f49c 823d 7740 353e 692d f23d b54a 563e
00000160: a4cd 50be 04a9 62be 001e 00be 3320 87be
00000170: b003 293e e3be 563e 49ca b5bb 2ad6 2fbd
00000180: 8112 9a3e a1d3 9d3e f122 acbe f5d4 10bd
00000190: abdb 50be 5149 973c 6dba c83b 6584 813e
000001a0: 04a2 913d 5d49 95be b4c8 f7bd ee14 c23d
000001b0: 7c3d 9e3e 7a1e 673e a3b0 ecbb 7142 56be
000001c0: 4d2f 02be 6242 483e 3bb8 85bc 3d80 20be
000001d0: df97 133e 0c57 a43b 4093 40be e3e6 83be
000001e0: c908 8abe e738 acbd 5660 3dbe f391 ae3a
000001f0: 09c0 3f3e 1b2b 623e c54a bfbd a4b0 8cbe
00000200: 634e f0bd 9523 48bd f558 38bc 12ec 88be
00000210: 17b4 15bd 7bd5 b13d acd3 88be a017 cfbb
00000220: 2a9f 32be 6cf7 0ebe e923 84bd ef0f f83d
00000230: c496 f1bc 2d7f b33c 6e1c 61bd b0e8 25be
00000240: 2695 743e e70c 31be 0a75 54bb 26bc 243e
00000250: 5a15 a13d c4e2 ff3d 6d83 233e 3c0a 38bd
00000260: e8e2 91be afe7 f8bc c080 0ebe 51b6 28be
00000270: 26c9 443e 15fb b8bd 185c e53d 665a 553e
00000280: 9fe9 2c3c e3ad 65be 00b1 8f3e 9d5a aabe
00000290: b05c a93e f0a1 ce3d 214b 993e ab78 6ebe
000002a0: 3076 9fbd 1c8f c6bd bacd e23d a6ca 00be
000002b0: 008e 9f3b acfe 8ebe 6f8d b8bd 13a0 98bd
000002c0: 24fd 7ebe 7ec6 673e 1c6b 893e 13fe a0be
000002d0: 7c8e 86bd 8cd4 413e c4b9 293e a041 fe3b
000002e0: 1ed7 dfbd 037c 7abe f1e4 7e3e 4987 b5bd
000002f0: 91bb 5b3c b72f 8abe db91 273e 5d47 633e
00000300: 6704 79bd f016 8cbd 6d87 ae3d ffcb c33d
00000310: 3e63 93bd 7184 453e 71a6 b63e eed0 8ebe
00000320: 6628 963d 20e0 5dbe 8137 b9bd 9914 98be
00000330: c121 99be 095a f6bc ec29 08bd 0581 883e
00000340: e84a e9bd 1e42 713e 8ea6 973e 8e51 aa3e
00000350: 2218 353e eed9 973d 67f0 9c3e b551 7bbe
00000360: 0f46 773e c824 69be d41d 773e f822 1f3d
00000370: bcf9 a03e efd7 99be 839b bc3d 7ce5 38bd
00000380: 797b ddbd f712 403e f9aa 663e 4dff 873d
00000390: 95f0 403e de7e 203d f32d 563d 7584 37bd
000003a0: d857 59be 04a2 483c 1d26 443e cdce c4bc
000003b0: d080 5d3c 2811 a8be f8f0 243e e14f 4b3e
000003c0: c3f0 773e 38a6 53be 2eb9 a63e c6ca 43bd
000003d0: 5a33 613e 3b84 9e3e 6892 b63e bcbe 593e
000003e0: d2d9 aabe 9185 48be 8fb3 563e 937b 923e
000003f0: 62ae a1be 0a1d a8be f8d6 86be 18a7 873e
0.25622502 0.16039559 -0.17849977 -0.17128944 0.07256976 0.14213002 -0.18781711 0.19680078
-0.08970683 0.23806144 0.02292038 0.29717043 -0.24816065 0.24685529 0.25927046 0.3407564
0.31960213 -0.29160985 -0.29173604 -0.20860489 -0.05678527 -0.08946696 -0.14205548 -0.16082524
0.16296566 0.1962456 -0.17340109 0.08571425 -0.17429422 0.03867782 -0.16763163 -0.030693555
0.09922394 0.040800367 -0.307223 0.21315558 0.14237581 -0.18416727 0.26716694 0.05062561
-0.28520194 -0.22831249 0.115371436 0.26773724 0.21856916 0.14625116 -0.16676798 -0.34277353
-0.27243525 0.016625334 0.10986917 -0.16960557 0.13026963 -0.1897556 0.18559928 -0.07257498
-0.21956852 -0.12605555 0.0019657458 -0.18585321 -0.1676836 0.29582343 -0.13746385 0.15760624
-0.020192731 0.2085801 0.18504864 -0.22603686 -0.31032583 0.12731336 0.30300558 -0.21770866
0.0036295978 -0.15713042 0.184551 0.17363241 0.00087236514 0.27046382 -0.28913844 -0.036138095
0.06603947 0.17449296 -0.0019524217 0.030441537 0.06377593 0.17700373 0.118250675 0.20926936
-0.20390946 -0.22134787 -0.12511444 -0.26391754 0.16505313 0.20971255 -0.005547796 -0.042928852
0.30092242 0.30825523 -0.33620408 -0.03535934 -0.20396297 0.018467577 0.0061257393 0.25296322
0.0711098 -0.29157534 -0.12098828 0.09476648 0.30906284 0.2257022 -0.007223205 -0.20923783
-0.12713356 0.19556573 -0.0163232 -0.15673919 0.14413403 0.0050152596 -0.18806171 -0.2576209
-0.26959828 -0.08409291 -0.1849378 0.0013318643 0.187256 0.22086756 -0.09340433 -0.27478516
-0.11733701 -0.04886206 -0.011251678 -0.26742607 -0.0365487 0.08683296 -0.26723993 -0.006319955
-0.17443529 -0.13961571 -0.06452162 0.12112414 -0.029490836 0.021911228 -0.054958753 -0.16202044
0.2388502 -0.17290078 -0.0032418394 0.16087398 0.078654006 0.12494424 0.15968104 -0.044931635
-0.28493428 -0.030383913 -0.13916302 -0.16475798 0.19217357 -0.09032265 0.11199206 0.20835266
0.0105537465 -0.22429614 0.28064728 -0.33272257 0.33078527 0.10089481 0.2994013 -0.23288219
-0.07786214 -0.09695265 0.110743955 -0.12577304 0.0048692226 -0.27928674 -0.09011351 -0.07452407
-0.24901253 0.22634313 0.2683953 -0.31443843 -0.065701455 0.18928736 0.1657477 0.007759288
-0.10929702 -0.24461369 0.24892022 -0.08863694 0.013411419 -0.2698953 0.16364233 0.22195192
-0.060795214 -0.068403125 0.08521924 0.095603935 -0.07196663 0.19288804 0.3567386 -0.27893776
0.07331924 -0.21667528 -0.0904379 -0.29703215 -0.29908565 -0.030072229 -0.033243105 0.26660934
-0.1139124 0.23560378 0.2961926 0.33265346 0.17684987 0.07414614 0.30652162 -0.24542888
0.24147819 -0.22767937 0.24132472 0.03885171 0.31440532 -0.30047557 0.09209349 -0.04514073
-0.10814566 0.18757235 0.22526158 0.06640492 0.18841775 0.03918349 0.052289914 -0.044804055
-0.21224916 0.012245659 0.19155164 -0.024024392 0.013519481 -0.3282559 0.16107547 0.1985469
0.24212937 -0.20668876 0.32563156 -0.0478008 0.21992245 0.3096026 0.35658574 0.21264166
-0.3336931 -0.19582202 0.20966934 0.28609905 -0.31578356 -0.32834655 -0.26335883 0.2649467

hidden_1.weight f4 [256, 512]
00000000: 79de 3b3c 5a84 3dbb 0fac 693d cd3b 3a3d
00000010: 7896 b1bc bbe9 223d 13c9 0b3c dfd1 f13c
00000020: 9fe8 57bd d9c4 683b 90ae 3f3d c023 383b
00000030: 024f 553d ec59 3abd 9788 653d 6d8e 9abb
00000040: bfcc 1abc abfa 9a3c 7cbc 2ebd 4709 723b
00000050: 9f85 b43c d204 3d3b a701 603d a440 8b3c
00000060: 0eae 3e3c 78fa 45bc a017 6a3c afd2 d93c
00000070: 5034 4abb 4b78 593d d414 d2bb 1b09 263d
00000080: 8f3f 2dbd aedc 9fbc fac2 043d 7781 6dbc
00000090: a224 4ebd 3482 43bd dff9 243b f045 923c
000000a0: 6951 7c3c 6318 f1bb 33c3 09bc 29fc c63c
000000b0: d387 51bd 2637 753c cdcb 043b 0bef 0a3c
000000c0: e8a0 96bc 279d d4bc e927 5dbd adc5 483d
000000d0: aef7 073d 68c6 4cbc 8368 53bd 078b 7bbd
000000e0: c31f 5f3d fa5d d13c 4e92 32bc 2784 73bc
000000f0: 3a9f 2fbc 6268 3d3d f9ec 203c acba f8bc
00000100: dfbc 7abc b8aa adbc 9369 7f3c 41df f53c
00000110: f749 623d 792e 503d 4cd6 d23c 99c2 09bd
00000120: ae7b 223c 88cc 883c 7dcd 223d 1e08 75bd
00000130: 044a 7abd 3ed8 9e3c 6aa7 efbc 1593 a73c
00000140: 8c3c 733c f04c 5c3d 4cb6 c43c c479 b73c
00000150: 8b51 8abb 0341 4dbd 3c5e a7bc 2da2 babc
00000160: 1bff 82bc 3689 76bd 9b7a 6a3c 1fe4 82bc
00000170: b35a 6dbd 3854 7cbd 5369 47bd d486 c13b
00000180: 4c6f 613d 2082 ce3c 85c8 d23c 85db 883c
00000190: f173 13bd 47c9 acbb d9da d738 a6a4 663d
000001a0: 9955 78bb a7d7 4fbc 6de2 6c3d 0fda 2cbd
000001b0: e9d7 b9ba 4f92 613d 8d54 a3bc 2d5a 79bc
000001c0: 167d 473c d8c3 15bd 5446 be3c 973f 503c
000001d0: 1cb6 1cbc 7b08 e0bc f091 b93b 56a7 80bb
000001e0: 2315 c93c f392 b83c 7cfd d53b c00d 193b
000001f0: fb15 833c 088e 0a3c ec7b 083c 5565 1f3d
00000200: 4474 d2bc f0d5 07bd 1093 403d ec26 2f3d
00000210: 5fda 6c3d 2ff0 a13c 718e 293c 0547 34bc
00000220: 8df9 673d 1ca2 863d 9432 be3c 104f a73c
00000230: e26b 453c 2cf6 163d 1ff1 f9bc 44a8 e1bc
00000240: 47bd 403d df5e 26bd 5028 153d 1f77 31bc
00000250: 4e36 d9bc b621 92bc 2c99 83bb 3cc9 8abc
00000260: d7af 9f3b 954d aeba ec81 c63c ed92 e7bb
00000270: fe7e 433d a1ce 023c 0a83 f3bc f748 93bb
00000280: 585d 343d e060 593d 2b8b cf3b c2bd 1b3d
00000290: bb8e 8a3c 62f1 22bd bfb1 f53c e48c a43a
000002a0: 2655 2e3a bb70 b5b9 5f0f e7bc a4e6 023d
000002b0: 22bc e3bc 1619 8c3c 3a81 043d 917a 6cbc
000002c0: 50e7 01bc da96 23bc 57b9 19bd 7f60 7f3d
000002d0: 92c9 4ebd 16bb bebb 6ff8 97bb ccbe 113b
000002e0: b54b 32bc 4fc7 383d eaa2 5f3c caad c1bc
000002f0: cd11 3a3a 3887 d4bc ce91 163c 0bb4 e7ba
00000300: b8c2 17bd d7f8 06bd f9d4 e0bb 18f8 c13c
00000310: 235c 693c feaf 0d3d 6c34 da3c 9a97 f1bc
00000320: e5c0 b7bc 4033 b03c 090e da3b 2fbd 533d
00000330: 27c0 f63b e1a3 193d 840c 963c 44e0 f9bc
00000340: 8565 2b3a ec8b 3c3a 7c71 e73c 777b 2ebc
00000350: a5d6 65bd 1f2a f7bc 0fd4 62bd f5e6 10bd
00000360: 67fe b7bc e0ae 40bd 8b63 833c 29fa 2cbc
00000370: 4db9 653d 70ec dabc e7ee 2dbc 1d9b 923c
00000380: 5d9a b0bc 5775 443c 4255 2f3d f20b cc3c
00000390: 1c79 703d 6e94 4abc c61f 893d 3ca5 9dbc
000003a0: 1f7b 1e3b 5c26 28bd 943f 00bd b94c 123d
000003b0: c2f8 5bbd 0a58 643d 122a 993c d257 903b
000003c0: dc80 333d 711a 3f3d 1fdc 02bd 7582 39bd
000003d0: 3c96 613b 8352 253c 5059 15ba 7e88 1cbd
000003e0: 3dfa b4bc 2281 7b3d 8360 fc3b 4a42 b43b
000003f0: cc09 b33c ee80 d3bc 5283 563c 6ea1 47bb
0.011466616 -0.0028918 0.057048853 0.045467187 -0.021678194 0.039773684 0.008531827 0.02951902
-0.05271208 0.003551772 0.046797335 0.002809748 0.0520773 -0.045495912 0.056038465 -0.0047166855
-0.009448229 0.018918356 -0.04266022 0.00369318 0.022036372 0.0028841984 0.054689076 0.016998596
0.011638178 -0.012083642 0.014287859 0.02658972 -0.0030853935 0.053093236 -0.0064111743 0.040536027
-0.042296942 -0.019514408 0.032412507 -0.014496199 -0.050327905 -0.047731593 0.002517335 0.017855614
0.015400269 -0.0073576435 -0.0084083555 0.024290161 -0.051154923 0.014966762 0.0020263076 0.008479844
-0.018387273 -0.025953842 -0.05399314 0.049016643 0.03319519 -0.012498476 -0.051613342 -0.061411884
0.05447365 0.025557507 -0.01089914 -0.014863051 -0.010719115 0.046242125 0.009822124 -0.03036245
-0.015303819 -0.02119957 0.015589136 0.030013682 0.05524632 0.05082557 0.02573695 -0.03363285
0.009917183 0.01669909 0.03974675 -0.059822194 -0.061105743 0.019390222 -0.029254634 0.020455876
0.0148459785 0.05378431 0.024012707 0.02239693 -0.0042211465 -0.050110828 -0.020430677 -0.02278241
-0.015990784 -0.06018945 0.014311458 -0.015977917 -0.057947826 -0.061603755 -0.04868443 0.0059059653
0.05503778 0.025208533 0.02573038 0.016706238 -0.035999242 -0.0052730176 0.000102927625 0.056309365
-0.0037892817 -0.012685693 0.057833124 -0.042200144 -0.0014178726 0.05507117 -0.019937778 -0.0152192535
0.012175819 -0.036563724 0.023226894 0.0127104735 -0.009564903 -0.027347794 0.005663149 -0.003926198
0.024546212 0.022531008 0.006530462 0.0023354143 0.016001692 0.008456714 0.0083303265 0.038914997
-0.025690205 -0.03316301 0.04701525 0.04276173 0.057825442 0.019767849 0.010348902 -0.0110032605
0.056634475 0.06573889 0.023217477 0.020423442 0.012049647 0.03685586 -0.030510483 -0.027546056
0.04705551 -0.04061782 0.036415398 -0.010831623 -0.026515152 -0.01783834 -0.0040160622 -0.01694166
0.0048732567 -0.0013298268 0.024231873 -0.0070670755 0.04772853 0.0079838345 -0.02972557 -0.004494782
0.044034332 0.053070903 0.006333729 0.038022764 0.016913762 -0.03978098 0.029991983 0.0012554196
0.00066502613 -0.00034607 -0.028205572 0.031958237 -0.02779967 0.017101806 0.032349803 -0.014433519
-0.007928684 -0.009984696 -0.03753027 0.062347885 -0.0504852 -0.005820642 -0.00463777 0.0022238968
-0.010882308 0.04511195 0.013649682 -0.02364244 0.00070979894 -0.025943384 0.009190036 -0.0017677558
-0.037050933 -0.032952156 -0.006861326 0.02367787 0.0142431585 0.034591667 0.026636325 -0.029491235
-0.022430846 0.021508813 0.006654505 0.05169409 0.0075302306 0.037509803 0.018316515 -0.030502446
0.000653826 0.0007192481 0.028252356 -0.0106495535 -0.056112904 -0.030171452 -0.055378016 -0.035376508
-0.022460176 -0.047041774 0.016038677 -0.01055769 0.05608492 -0.02672407 -0.010616041 0.01789623
-0.021557981 0.011990867 0.042805918 0.02490804 0.05870925 -0.01236449 0.066955134 -0.019243829
0.0024182273 -0.041052207 -0.031310633 0.0357177 -0.05370403 0.055748023 0.018696819 0.0044050002
0.04382406 0.046656076 -0.031948205 -0.04529043 0.0034421822 0.010090473 -0.00056972075 -0.038216107
-0.02209198 0.061402448 0.007701935 0.0055010663 0.021855257 -0.025818314 0.013092833 -0.003046121

hidden_1.bias f4 [256]
00000000: 7a21 6abd 6873 06bd 6956 923c e1eb 0ebb
00000010: 3518 a2bc 8a62 c23c c96e 003b bae3 4f3c
00000020: 160b 16bd a098 65bd 9003 ecbc 480f 00bc
00000030: 947d 463b f4e9 6b3c 33ec 0bbc 72a6 a53b
00000040: b52e e83b 0ad0 233d 5a83 153d 0cad 41bd
00000050: 70a2 c63c b1d1 29bd f406 92ba ea99 843d
00000060: e132 793d bed2 5ebd 0b0b 78bd 51d7 9dbc
00000070: 4850 6bbb 4e57 213a 31d1 3f3d 0328 98bb
00000080: d972 393b a875 313d 6150 f53c b879 be3c
00000090: c2d2 f7bc e1de 153d 46c6 05bd be7e 5fbb
000000a0: ff43 febb 7534 26bc df12 253c 4dff 07bd
000000b0: 25c7 a53c 7098 3abd f2ec 2fbd ad4b a63c
000000c0: e30d 6f3d de0a 30bd df74 6abc 1262 a83c
000000d0: 3b1d 1a3d 260b f03c 64b8 f5bc 0248 a0bc
000000e0: 35c1 913c 83e0 e23b 3c65 09bd bf4f efbc
000000f0: ddf5 8838 9400 ef3b 6301 4c3c 799f e53c
00000100: c936 dc3b 1ee8 4a3c 9c0b a9bc a587 8b3d
00000110: a096 b53c f002 2b3c 5ddc 143d 1296 f739
00000120: b025 c73c 88f4 a0bc 4862 823c bc06 19bc
00000130: fe11 33bd a217 c3bc 280d 18bc 2648 03bd
00000140: b92c 4cbd 11d8 60bd ee5c 873c bef7 22bb
00000150: a9d0 31bd e644 673d a1a0 4d3c b6d9 1dbd
00000160: 6dca 23bd dc91 1b3c 8e8d f63c 78d1 b5bc
00000170: 09db 9abc 4ac4 84bc 7fa2 143c 3447 0e3d
00000180: 2d1f 27bd 080a 0ebd 00ee e83c 450c 22bd
00000190: 5d8d 1ebc 147c 0a3d 8a34 febc 2b80 65ba
000001a0: 4888 3c3c 6dd6 33bd d7b2 5cbd dba6 38bd
000001b0: 0bb8 ad3c 6427 0abd ec8e 67bd 6bf2 813c
000001c0: b3da 103d dc47 0f3c 7400 03bd af79 21bd
000001d0: 09c3 e43c 49e1 15bd 6f4c 28bd 521e 28bd
000001e0: d969 203c 9472 32bd cfb3 09bd c503 84bb
000001f0: a0f6 b4bb 3866 77bc d6d0 1cbb 3f8f 123d
00000200: 4f14 9bbb 6132 abbc 056e 803c df76 92ba
00000210: 9f2c 54bd 554e 703d 48e3 38bd 6863 aa3c
00000220: 37a4 b73c 2fc3 4fbb a476 a23c e370 643c
00000230: ef47 19bd 9aa6 ea3c 8f05 79bc 52da 843c
00000240: ab3d a13b 3e81 2dbc d4a4 a5bc 6658 fabb
00000250: 99ff 053d 000d 43bd da16 cfbc 0286 093d
00000260: 4dcf fdbc 615e 803d 615e 823b 1a3b 6bbd
00000270: 7af4 e2bc f22d e03c 65e2 a2bc bf5f 26bd
00000280: 6b47 813c 329b 4ebc a4ec b43b 65d6 583d
00000290: 48ad 573c 4e70 a43b 543d f6bc f1aa b03b
000002a0: 2c43 cf3a 497a 7bbd 57a7 503d b397 97bc
000002b0: 81e0 03bd fc83 223d 0022 983b daf5 ffbc
000002c0: ff3b 153d bf11 28bc 6117 67bd 1c39 753c
000002d0: 87b6 703c a186 43bd a227 0f3d 8104 953c
000002e0: e5e4 11bd f5bf 1c3c 4d4e 61bc 86d8 373c
000002f0: a29c 963c d4ae ae3c d176 49bc e65a 0e3d
00000300: c24a 4dbd 2397 93bc f27e 6f3c 156b deb9
00000310: 31d9 cc3c 0e77 813c 3250 1b3d 2c67 b4bc
00000320: 3b11 f93a 9876 d7bc 3a6a 813c c645 e5bc
00000330: d14d f6bc ea1f 6f3c 406a 663c 2cbd 47bc
00000340: ab21 21bc 3401 6fbc 09a8 9e3c b871 d2ba
00000350: 85b7 1fbd b047 1f3d 85e6 26bd ff60 f2bc
00000360: b81c 81bd 82fc 1f3d 1617 2c3d 4a4f 5a3c
00000370: d9c7 64bd cbe4 22bd 0612 8dbc 7111 13bc
00000380: 7c70 2cbd 340c 8d3c 5147 b4bc 9cae 2d3b
00000390: a904 8dbc 8d89 1cbc b527 be3c 50cd 1f3d
000003a0: a46c 39bc cc7d 25bc a205 dbbc 062d a13c
000003b0: c0cf 093d 0bc8 543c b06c 2bbd 3119 a6bc
000003c0: 379a d9bc 5a0b 753c b46d bbbb 0c42 bd3c
000003d0: 7311 f4bb b10d 04bc d5f2 69bd ca24 5f3c
000003e0: 7ae9 e63b 5d24 5b3d 85dc bfbb c132 fdbc
000003f0: 8e14 24bd f6e8 1e3d dc8f 49bc 82de 0d3c
-0.057160832 -0.032824904 0.01786347 -0.0021808075 -0.019786933 0.023728628 0.0019597283 0.012688572
-0.036631666 -0.056053758 -0.028810292 -0.007816143 0.0030287253 0.0143990405 -0.008540201 0.005055242
0.007085646 0.039993323 0.03650222 -0.04728417 0.024247378 -0.041459743 -0.0011140988 0.06474669
0.060839538 -0.0544002 -0.060557406 -0.01926771 -0.0035906006 0.0006154672 0.04683036 -0.0046434416
0.0028297214 0.043325096 0.029945554 0.0232514 -0.030251864 0.036589507 -0.03265979 -0.0034102644
-0.0077595706 -0.010144343 0.0100753 -0.03320246 0.020236561 -0.045555532 -0.042950578 0.020299757
0.058362853 -0.042979114 -0.014310091 0.020554576 0.037625533 0.029302191 -0.02999515 -0.019565586
0.017792324 0.0069237365 -0.03354381 -0.02921283 6.530781e-05 0.00729377 0.0124515025 0.028030144
0.006720398 0.012384443 -0.020635419 0.068129815 0.02216655 0.010437712 0.036342967 0.00047223322
0.024309963 -0.019647852 0.015916005 -0.0093399845 -0.04371833 -0.02381498 -0.00928048 -0.032051228
-0.04984734 -0.054893557 0.016523805 -0.0024866904 -0.043411884 0.05646219 0.012550504 -0.038537703
-0.03998797 0.009495225 0.030096795 -0.022194609 -0.018903272 -0.01620688 0.009071945 0.034735873
-0.040801216 -0.034677535 0.0284338 -0.039562482 -0.009677258 0.033809736 -0.031030912 -0.0008754755
0.011507101 -0.043905664 -0.053881492 -0.045081 0.021205923 -0.033728972 -0.056532785 0.015862664
0.035364818 0.00874516 -0.031982854 -0.039422687 0.027925031 -0.0365918 -0.041088518 -0.04104454
0.009790861 -0.0435663 -0.033618744 -0.0040287697 -0.005522564 -0.015100054 -0.0023928187 0.03578114
-0.0047326456 -0.020898046 0.015677461 -0.0011174342 -0.051800366 0.058668453 -0.045138627 0.020799354
0.02241717 -0.0031702032 0.019831963 0.01394293 -0.037422117 0.028643895 -0.015199079 0.016217384
0.0049206815 -0.010589896 -0.020220198 -0.0076399324 0.03271446 -0.04761982 -0.025279451 0.033575065
-0.030982638 0.06268001 0.003978536 -0.05742941 -0.027704466 0.027365658 -0.019883344 -0.040618654
0.015781125 -0.012610244 0.005521374 0.052938838 0.013163872 0.0050182706 -0.03005854 0.0053914716
0.0015812865 -0.061395917 0.050940838 -0.018504953 -0.032196525 0.03967665 0.004642725 -0.03124516
0.03643417 -0.010258137 -0.05641878 0.014967229 0.014691955 -0.047735814 0.034949906 0.018190624
-0.03561868 0.0095672505 -0.0137515785 0.011221057 0.018385235 0.021323599 -0.012296394 0.034754656
-0.050120123 -0.018016404 0.014617668 -0.00042422922 0.025005909 0.01580384 0.037918277 -0.022021852
0.0019002327 -0.026301667 0.015797723 -0.027987372 -0.030066403 0.014595011 0.014063418 -0.012191098
-0.009834687 -0.014587689 0.019367235 -0.0016055619 -0.038993377 0.038886726 -0.040747184 -0.029587267
-0.06304306 0.03905917 0.042014204 0.013324568 -0.055854652 -0.039768975 -0.017220508 -0.008976326
-0.04209946 0.017217733 -0.022006663 0.002650178 -0.017214136 -0.009554279 0.023212293 0.03901416
-0.011317406 -0.010100793 -0.026736084 0.01967479 0.03364539 0.012987147 -0.0418517 -0.020275684
-0.026562793 0.01495632 -0.0057198647 0.023102783 -0.007448369 -0.008059905 -0.05711635 0.013619611
0.0070468755 0.053501476 -0.0058551454 -0.03090799 -0.040058665 0.038796388 -0.012302365 0.008659007

hidden_2.weight f4 [256, 256]
00000000: 854d 263d 19e9 cf3b 75e8 85bd 7e05 203d
00000010: 74bc c3bc 2428 aebc 60f1 3c3c 4071 313d
00000020: 3d1e 02bd 4b11 35bd c8c1 47bd a82e 7dbc
00000030: c811 64bd 9a49 513d 50b5 b23c 49bf 0a3a
00000040: 75ba 8bbc 55ee 7a3c dad5 363d 13b0 f93c
00000050: a71d a4bd a8bd 3abd 6c92 8f3d c5e7 833d
00000060: 1fed 9c39 3337 053c a39a 60bd 1040 693c
00000070: 5097 27bd fa74 e13c 366a d63b f4ff cbbc
00000080: c9cd 93bd 33fd 0a3c 4290 613d 7b00 efbb
00000090: b07b 853c 042a cabc d0f4 be3b f18c 3b3d
000000a0: 362d 44bc a019 b83b 2c47 0a3d e1bf 1d3d
000000b0: 5c93 b13c 897b c43b fc70 acb9 d589 3e3d
000000c0: 49be f83c 0b5e 99bc 37c6 193d e31d d53b
000000d0: 0364 f73c 92d3 0fbd 02fe 5fbd 5602 d23c
000000e0: 4872 143c 0299 343d a254 273d 98e2 0fbd
000000f0: 7780 353d 0010 71bd 0b6c ee3a fda0 80bd
00000100: f96b a33c a394 a3bc dbcc e03c b830 5d3c
00000110: 3bf6 38bc cd34 4d3d 90ed 813b 00e5 63bc
00000120: 5ab2 113d b460 513d d1a4 68bc 13e1 bcbc
00000130: ee60 c13c e143 2d3d 0de5 aa3c 8a0b 29bd
00000140: 6c66 3dba ddee abbb 03c2 1e39 08bc 14bd
00000150: 30a2 9d3c 0c1e c23c 2ecf 95ba 6e0f fdbc
00000160: 9e6f 1bbd c53a 9ebd 34dd 903b 282e 05bc
00000170: 7514 433d f7ad 75bd 86a0 72bd d1df d7bc
00000180: 6437 81bc 7421 0f3d b71c 1abc b866 453c
00000190: 74d2 33bd 30d4 5dbd 90ca 90bc f807 66bc
000001a0: 98a8 3bbd b65a f23c 28a3 0fbc 1f95 f8bc
000001b0: c5ce 29bc 71db 943d c4eb 49bd d95e a6bc
000001c0: e25f 423d 80fe 5e3d 403a a53c bc82 4cbc
000001d0: b487 41bd 8d3e 4bbd dad3 59bd d07f fc3c
000001e0: 2ae2 01bd 43d8 21bd f0ac 39bc 509d 123d
000001f0: e544 dcbc 1792 66bd 106b 15bd 662d 09bd
00000200: 383b 98bd 5c7e aa3c 5865 353d 03ca 39bd
00000210: 10a6 5fbd 8d80 243d 95f4 5e3d abeb 413c
00000220: 5854 103d 7ebb a63d f9cd 07bd 1c32 68bd
00000230: d06d 42bd 60bc fcbc 9809 8b3d 60b8 87bd
00000240: 8093 bcba 0031 f239 e86a 01bd 5894 7dbd
00000250: dc29 5fbd 256f cebc fd1f 06bb 561e c13c
00000260: 92d2 693d 104d e5bb 9c71 d1bc 6c26 98bd
00000270: 5668 9e3c 643e 903c bae8 44bd ed59 fcbc
00000280: bff1 9fbb 2663 dbbc 6664 423d 3f36 25bd
00000290: 06ee 20bd cc11 1dbc f2a0 773c 8e54 1c3d
000002a0: a031 f73b 1bc2 4dbd 9a22 6e3d 4a38 0b3d
000002b0: 9533 cb3c c0f4 683b 0526 81bc c32e 823d
000002c0: 38d7 42bc aa7a 25bd 8c9d 253c 2a97 a23d
000002d0: 5b9b 3c3d 73ba 14bd b818 cdbc d261 a5bc
000002e0: 652d 183b d56b 10bd 0873 753c 76e6 353d
000002f0: e82c 38bc b4da 0dbd 0c5c 9b3c b1ae a13c
00000300: 8b07 a93c ab6b cf3b 0343 103d bfd4 e83b
00000310: 60a3 82bb deff fcbc 8823 613d 3944 07bc
00000320: 2085 5fbd 1604 39bd 4510 8bbd 8808 ce3c
00000330: 15d8 d83c 2785 5a3d e1d1 07bd b80d f8bc
00000340: 58d4 42bd c3c7 41bd 2ff9 913c dee8 d2bc
00000350: abfd f33b ce35 523d 50a4 77bc 9004 c9ba
00000360: 92f6 87bd 13da 8cbb a36b 483d 201d 103d
00000370: 86f2 a2bc bc64 a3bd b492 0bbd 3ce2 bebc
00000380: 19ef 4a3d dc54 0c3c a953 a8bc 7a24 4dbd
00000390: 150e 483c 0686 cdbc b3f2 013d 69da 133d
000003a0: 4f63 953d e961 48bd ccaa b73c 5ece b3bc
000003b0: ca59 d73c 86e3 b2ba 8513 77bd 7225 3cbd
000003c0: 467e 17bd e4d5 9c3c 407c 763b 2004 113d
000003d0: a4c5 2b3c d266 4cbd 52df 9b3d 4f17 0ebc
000003e0: 14c7 813d 0b50 7abb b084 7c3d ecc0 553d
000003f0: 2596 b1bc b0a5 7b3d e471 a43b a7c6 29bd
0.040601272 0.006344926 -0.06538478 0.039067738 -0.023893572 -0.021259375 0.011532158 0.043320894
-0.03176712 -0.044205945 -0.04876879 -0.015453018 -0.05568102 0.051095583 0.021814972 0.0005292786
-0.017056683 0.015315612 0.04463754 0.030479467 -0.08013468 -0.045591027 0.0701035 0.06440691
0.00029931308 0.008130836 -0.054834973 0.014236465 -0.040915787 0.0275216 0.006543423 -0.024902321
-0.07216985 0.008483219 0.055069216 -0.0072937584 0.01629433 -0.024678238 0.005827524 0.04578871
-0.01197367 0.005618289 0.03375928 0.038513068 0.021676712 0.005996172 -0.00032890576 0.046518166
0.030364173 -0.018721601 0.037542548 0.006503807 0.030199056 -0.03511388 -0.0546856 0.02563588
0.00906045 0.044091232 0.040852197 -0.035128206 0.044311967 -0.05885315 0.0018190158 -0.06280706
0.019948946 -0.019968336 0.027441433 0.013500385 -0.011289175 0.050099183 0.0039650872 -0.013909578
0.03557048 0.051117614 -0.014199452 -0.023056543 0.02360579 0.042301062 0.020861173 -0.04127077
-0.000722504 -0.0052469806 0.00015140329 -0.036312133 0.019242376 0.023695968 -0.0011429542 -0.030891147
-0.037948243 -0.07726053 0.0044209007 -0.00812868 0.04762693 -0.05998036 -0.05923512 -0.026351841
-0.015773483 0.034944013 -0.00940626 0.012048416 -0.043901876 -0.054157436 -0.017674714 -0.014039986
-0.04581508 0.02958427 -0.008766927 -0.030344544 -0.010364239 0.072684176 -0.04929711 -0.020308899
0.047454722 0.05444193 0.020169377 -0.012482341 -0.047248557 -0.0496202 -0.053180553 0.030822664
-0.031709827 -0.039512884 -0.011332735 0.035794556 -0.02688832 -0.056291666 -0.036479056 -0.03349056
-0.0743317 0.020812206 0.044286102 -0.04535867 -0.05460173 0.040161658 0.05443247 0.011835973
0.035236686 0.0814123 -0.033155415 -0.056688413 -0.047468007 -0.030851543 0.06788939 -0.066269636
-0.001438722 0.00046194345 -0.031596094 -0.06190905 -0.05448328 -0.025199482 -0.0020465844 0.023574036
0.05708558 -0.006997712 -0.025566868 -0.074292034 0.01933686 0.017607875 -0.048073508 -0.030804599
-0.0048811133 -0.026780676 0.04745903 -0.040334936 -0.039289497 -0.009586763 0.015114056 0.038166575
0.0075437576 -0.05023394 0.058138467 0.03398923 0.02480487 0.0035546273 -0.0157652 0.06356575
-0.011892132 -0.040400185 0.010108363 0.079389885 0.046046596 -0.036310624 -0.0250362 -0.020188246
0.0023220417 -0.035259087 0.014981039 0.044409238 -0.011241175 -0.0346324 0.01896479 0.01973662
0.02063348 0.0063299737 0.035220157 0.0071054394 -0.003986761 -0.030883726 0.054965526 -0.008256012
-0.054570317 -0.045169912 -0.067902125 0.025150552 0.026470223 0.05334964 -0.03315914 -0.03027998
-0.047565788 -0.04730965 0.017819015 -0.025745805 0.007446011 0.051320843 -0.015114859 -0.0015336443
-0.066388264 -0.0042984574 0.048930775 0.035184026 -0.019891035 -0.07978198 -0.034075454 -0.023301236
0.049544428 0.008565154 -0.020547705 -0.050083615 0.012210389 -0.025088321 0.031725597 0.036096964
0.07294332 -0.0489215 0.02242031 -0.02194899 0.026287932 -0.001364813 -0.06032135 -0.045934148
-0.036985658 0.01914496 0.003761068 0.035404325 0.010484133 -0.049902745 0.07610954 -0.008672549
0.06336799 -0.0038194682 0.06164998 0.052185938 -0.02167804 0.06143731 0.0050184596 -0.041449215

hidden_2.bias f4 [256]
00000000: 17e7 a5bc 66b2 47bd 9844 11bd 1d4a 6d3c
00000010: cdb3 1ebd 7aaa 713c 410d 99bd 21c6 adbc
00000020: 930f c3bc 2cfe 0d3d 8cb7 19bd 1cd3 07bc
00000030: a379 14bc 4211 e6bc 39b2 27bc dad6 94bd
00000040: 9233 a13d 51ab 493d 181d 43bb f45d e93c
00000050: 874d ad3b e5b8 8c3d e943 033d 4153 513d
00000060: c37d e53c 2363 debc f1fd 8bbc 8aa3 123d
00000070: 3685 133d 8a86 31bc 9dbd 3dbd eb8b d53c
00000080: a6bf 1dbd d3ee 99bd 521e 673d 9075 2d3d
00000090: 4110 093c a2fd 803b bb63 43bd 7848 e5bc
000000a0: e6be 2cbd 290a e63a 32e7 0fbd a464 e43b
000000b0: b744 11bd ee8d a8bc d93b 92bd fa66 123d
000000c0: 8bfe 03bd d678 003d 10c1 873c 2165 8dbd
000000d0: 86d3 42bd 9e9c 323d 0620 06bc b38d 91bd
000000e0: b727 8dbd c8f2 673c 181d d0bc 718e e33b
000000f0: b7b5 11ba f721 373d 02c4 1abb d7b0 613d
00000100: ebc9 8abd 635e 173d 5008 d5bb 2d1b e0bb
00000110: 5051 fb3b 7a49 963d 1330 ed3c 7bc5 06bd
00000120: 5670 27bc ce33 043d 10e8 c23c 2e72 e03c
00000130: 869c 87bc b0be d8bc 77c2 d1bc f52b da3b
00000140: 1c4f 8ebc 1b84 80bd 9c89 0cbd e6fa 08bd
00000150: 6c6a ebbc 0073 653c 2e2d 153c aa70 13bd
00000160: 89e5 d33c bdd6 c23c fc2b 33bd 8dab 353d
00000170: 00ec b43c 64b6 94bc 28ce c73c cb6e 13bd
00000180: b0b5 76bd ebc3 ae3c 4c3c e0bc 0e91 50bc
00000190: dcaf 103d 54b9 1a3d 3366 133b ad1c 843d
000001a0: bc0b 893b 2a25 edbc 006a b9ba c49a 993c
000001b0: fe79 783d d574 88bd 7034 33bc 6c6b 8abc
000001c0: 6fe0 323d ddaf 0dbd dce9 903d dafd 883d
000001d0: 6086 483b 3be6 94bb 4e7f 2bbd ce33 82bd
000001e0: 3919 8dbd 0b68 2cbd e2a9 263d 74bd 9fbc
000001f0: d539 363d 7631 7a3d de33 283d 9ecc 4bbd
00000200: f0e6 22bd cc91 6b3d 0904 e5bc 40e7 9d3c
00000210: f0bd 0d3d 42b7 70bd 8448 86bd e6e2 553c
00000220: e548 7f3c d41b 63bd ff89 a23b b044 de3c
00000230: 91c3 ddbc bcd3 913d 811a c93b a28a 7f3d
00000240: e21a 9fbd 8354 c3bb c6ed 463d eed3 25bd
00000250: 634e 0bbd be9d c83b 50cb 38bd d00d 95bd
00000260: edc1 80bc 13ce 88bd 20c1 953d b4ae c9bb
00000270: 2939 593b f144 763c 6c9f 223d 89bf 2dbb
00000280: f750 81ba 899a 593d 3ea4 093c 6ce7 233d
00000290: 209d 4fbd a895 6f3c 14e6 3a3d 7c42 de3b
000002a0: e4fe 16bd 26aa dabc 94d3 34bd 0f22 0a3d
000002b0: 6718 0d3d dafd e43c d320 26bc 7ec4 4a3d
000002c0: d0ed 6cbd fa78 353d b097 da3c e44e bb3c
000002d0: a850 703d 6ad5 47bd cd28 b53c 002a cc3c
000002e0: 104b f13c f6d1 513d 0f74 9d3d 3150 52bd
000002f0: 0b35 103d 6617 38bd b147 e63b 5e36 a3bc
00000300: 8cb7 a6bd dc21 103d d078 dfbc 090e 2d3c
00000310: 2115 573d 83ff 92bd 3f1e 7ebc 894d 0fbc
00000320: 1c82 0c3d bfea 563c dc97 38bb 1d66 33bd
00000330: ae7a 043d 0108 063c 9d6d 73bd 609b a9bb
00000340: dc63 4b3d 184e 08bc 5105 ffbc 1368 0dbd
00000350: 51fd 23bd a1fa 3bbc 9417 de3c 1c5a 1abd
00000360: c158 563c 8d90 113d 8079 483d ee2c b9bc
00000370: e4fd 19bd d6f6 dd3c c955 543c 24a4 f1bc
00000380: b0a7 c23c 2071 303d 1cee b23b 0794 a63c
00000390: ec5a 30bd 6e5d 1abd b188 9fbd c051 62bd
000003a0: 0067 9039 64c8 97bc fda9 1cbd 2999 333c
000003b0: 790f 3c3d ceb7 da3b b477 6fbd eb7d 40bc
000003c0: 9013 cabc bdd0 0cbd 53d4 0e3d c708 fc3b
000003d0: c563 b23c c320 c8bc d02e 783d e461 0cbc
000003e0: d266 a33d 33b4 83bd 18be 5e3d b4cd 77bc
000003f0: bc43 a43c 8b32 793d b7a5 44bd 1efa 2dbd
-0.020251794 -0.04875412 -0.035465807 0.014483002 -0.03874569 0.014750117 -0.07473231 -0.02121264
-0.023811137 0.034666225 -0.03752856 -0.0082900785 -0.009062204 -0.028084401 -0.010235363 -0.07267542
0.078711644 0.049235646 -0.002977198 0.028487183 0.005288783 0.06871203 0.032047186 0.051104788
0.02801407 -0.027146881 -0.017088862 0.035800494 0.03601571 -0.010835299 -0.046323407 0.026067695
-0.03851285 -0.07516255 0.0564254 0.042348444 0.008365692 0.0039364854 -0.047702532 -0.027988657
-0.042174242 0.0017550635 -0.035132594 0.006970005 -0.035465922 -0.02057549 -0.07140321 0.035742737
-0.032225173 0.031365238 0.016571552 -0.069040544 -0.047565006 0.043606393 -0.008186346 -0.07107105
-0.06892341 0.014157005 -0.025404498 0.0069444706 -0.00055583887 0.044710126 -0.0023615365 0.05510029
-0.06776794 0.03695525 -0.006501235 -0.006839177 0.0076696053 0.07338233 0.028953588 -0.032903176
-0.010219654 0.032275967 0.023792297 0.027398195 -0.016554128 -0.026458114 -0.025605423 0.006658072
-0.017371707 -0.06275197 -0.034310922 -0.0334424 -0.02873727 0.014004469 0.00910501 -0.035996117
0.025866287 0.023784036 -0.04374312 0.044353057 0.02208519 -0.018153377 0.024390295 -0.035994332
-0.060231864 0.021333655 -0.027372502 -0.012729896 0.035323963 0.0377744 0.0022491335 0.06450782
0.004182307 -0.028948385 -0.001414597 0.018750556 0.060663216 -0.06662909 -0.010937795 -0.016896926
0.043671068 -0.034591544 0.07075855 0.06689043 0.0030597672 -0.004544047 -0.041869454 -0.06357537
-0.068895765 -0.04209141 0.040689357 -0.019499518 0.044488747 0.061082326 0.04106509 -0.049755685
-0.03977102 0.05751209 -0.027956026 0.019275308 0.034604967 -0.05876852 -0.065568 0.013054585
0.015581344 -0.05544646 0.004960298 0.027132362 -0.027070792 0.07120463 0.0061371927 0.06238807
-0.07768799 -0.0059610023 0.048566602 -0.040485315 -0.034010302 0.00612232 -0.04511577 -0.07278025
-0.015717471 -0.066799305 0.07312226 -0.0061548594 0.0033145642 0.015031085 0.039702818 -0.002651187
-0.0009866048 0.05312589 0.008400975 0.040015623 -0.050686955 0.014623083 0.045629576 0.006782828
-0.036864176 -0.026692461 -0.04414709 0.033723887 0.0344471 0.027953077 -0.010139662 0.049503796
-0.057843983 0.044304825 0.026683658 0.022864766 0.05867067 -0.048787512 0.022114182 0.02492237
0.029454738 0.051225625 0.07688152 -0.051346008 0.035206836 -0.04494419 0.0070275893 -0.019923385
-0.081404775 0.03518854 -0.027279288 0.010562428 0.052510384 -0.07177641 -0.015510141 -0.008746513
0.03430377 0.013117491 -0.0028166687 -0.043798555 0.03234356 0.008180619 -0.059430707 -0.005175993
0.04965578 -0.0083194 -0.031130465 -0.03452308 -0.040036503 -0.011473329 0.027110852 -0.03768359
0.013082684 0.035538245 0.048943996 -0.022604432 -0.037595645 0.02709524 0.012959906 -0.029497214
0.0237616 0.043076634 0.0054605138 0.020334257 -0.04305546 -0.037686758 -0.07789744 -0.055253744
0.0002754256 -0.01852817 -0.03824805 0.010961809 0.045913193 0.0066747433 -0.058463767 -0.011748771
-0.024667531 -0.034378756 0.034870457 0.007691476 0.02177609 -0.024429685 0.06059152 -0.008568261
0.07978596 -0.06430855 0.054380506 -0.015124727 0.02005183 0.060839217 -0.0480096 -0.04247486

output.weight f4 [4, 256]
00000000: 03a9 20bc 90c6 d2bc b52d 7fbd 0981 27bd
00000010: f650 1b3c 439a 603d 5817 44bd b0c1 4a3c
00000020: a003 35bb e849 533c f865 143c be05 753d
00000030: 3175 40bb e043 29bb d4f1 723d ed31 54b9
00000040: 090c b73c 88c8 833d d2c5 633d 4c7a 27bd
00000050: 4fd8 643b 48c5 593d 7870 03bc cd15 e83b
00000060: ad73 903c ce6f 773d d69d 053d 2d13 833b
00000070: e29a abbc e27d ecbc 3935 87bd 3014 11bd
00000080: d0cc 92bc f62c 0c3d aec1 3abd e3cb 873d
00000090: f14c 003d f4b4 a53c 88e9 213d 0456 2ebd
000000a0: 0c61 6e3c 9fa0 d63c 2d93 2b3d 1249 23bd
000000b0: 503b d03c 0e9d 25bd 3bc6 0e3b 5cf4 1b3d
000000c0: c36f 0fbd 7632 b8bc 0341 223c 5282 2a3d
000000d0: 0c3b 213d 70a1 08bc 4282 9d3d 8d3e 933c
000000e0: 38de 1abc 507d 08bc 9018 34bc 0f63 423c
000000f0: 1013 0abc 97e9 ff3c 3e80 383d 767d 95bd
00000100: f31f 9bbd 70fe 623c b201 0fbd bbc3 40bd
00000110: 9b2b 883d b29f 9a3c dd4a b13c 3996 8e3d
00000120: 9030 463c 6250 7b3d 8062 673b 9153 9bbc
00000130: 2d27 45bd 4f01 38bb 9081 653d 1206 373d
00000140: 3020 c5bb 1f3e 733d aa3e 49bd 2283 bd3a
00000150: 4734 df3c d802 b5bc f13f 3cbc bcd6 bc3c
00000160: 1936 8c3d ea91 61bc 2ee2 1e3d a6cb 6c3d
00000170: b09d 7d3d fe2f 5a3d 00a0 17ba 10a6 8f3d
00000180: b1c7 d63c 1e7a 593c 2ce4 b53c bc1b 1c3c
00000190: 0086 a1bc e6ea 3c3d 1411 033d 63f1 12bd
000001a0: 8894 efbc c88e 9a3c a0d4 3fbb ee5a 73bd
000001b0: f456 5ebd 5e44 20bd c02f 353b 741f e1bc
000001c0: 66be c73c f90a 90bd 9a8b 393d 7c0c bc3b
000001d0: 802c 723c 7809 a7bc 7a82 c0bc 6144 25bc
000001e0: c793 883c 6200 9ebd aaee 583d 7eab d7bc
000001f0: 1c1f 45bd a3de 1f3c b7b9 9c3c 044d 2a3d
00000200: 8429 7abc 2003 80bc 0280 36bd 8c20 21bd
00000210: c39f 27bd 8cf3 17bd 61c5 2cbd fa35 a0bd
00000220: f04e 843c 00a8 c33c 00ee 6fb9 1a72 3c3d
00000230: 7a2b 0b3d d16f 5ebc 9b7d 86bd d860 013c
00000240: 359d ac3b 3a52 f5bc 7eba 563d 08c4 993d
00000250: 21d8 3c3d a662 2abd 49a3 ea3a 8014 b63b
00000260: 845c b33c 3a7a 50bd f4d8 a2bd bff6 e2bb
00000270: cf2d 103d 407d 533d c214 c6bc 10c1 743c
00000280: afb8 a9bc 5b90 ea3c 8986 1f3d c213 433d
00000290: eaa1 8abd 7b96 32bd 7cee b93c de90 743d
000002a0: 4e72 8f3c f741 f4bc 3949 033d 004d bf3a
000002b0: 0a79 913c 1200 0ebd 611f 233c 0d32 043d
000002c0: cde1 32bd 60ac 37bd 8cd5 113d 6e44 5bbd
000002d0: 0447 7fbc 1260 05bd 45be 333d 5299 1cbd
000002e0: e8d7 4d3d f7ca a0bd c052 82bd 6255 9ebc
000002f0: 14a0 58bd 8898 2bbd e18d 113d 07ec 943d
00000300: 14a3 773b 8925 863d 50cb a03c 61ff acbb
00000310: 1077 293d 492e 353d 8892 983d 6846 40bc
00000320: 5d61 50bd 2e1c 253d 3dc3 903d aec4 673d
00000330: 3f88 7c3d ab66 80bd 3c76 243d 4ab7 a13d
00000340: 8e5c 51bd 5009 a53c a03f 65bc cc44 a3bc
00000350: 0e02 fa3c b7b8 923c 4e6b 163d 9685 273d
00000360: f005 f43b 9993 ad3b 1cdb 52bd 2ae7 4f3d
00000370: d26c 78bd 504e ffbc 8d63 2a3d 36ce 5dbd
00000380: 8e7c 6abd cec9 69bd dd72 8fbd 2456 d2bc
00000390: c0a5 32bb 24cb f93c fd55 33bc e5d3 7b3d
000003a0: 12fb 033d a34f 273a 2750 7ebd 2d93 ce3a
000003b0: 8057 6a3b 83a5 96bc 073e 843d c1c5 f43c
000003c0: fae5 2abd 881e 6f3d 3d6a 583d 41ca 133c
000003d0: a597 e6bc fcdc 58bd 90c2 b93c 466e 283d
000003e0: 59af 853d 6323 01bc bea6 4cbd d32b bdbc
000003f0: cee4 553d e486 89bd 0076 6cba 8436 72bd
-0.0098059205 -0.025729448 -0.06229945 -0.040894542 0.009479752 0.054834615 -0.047873825 0.01237528
-0.002762057 0.012896039 0.009057514 0.05981993 -0.0029366727 -0.002582781 0.059312657 -0.00020236494
0.022344606 0.06434733 0.055608578 -0.040888116 0.003491897 0.053166658 -0.00802242 0.007082677
0.017633284 0.06040936 0.032621227 0.0040000887 -0.020947877 -0.02886862 -0.06601948 -0.035419643
-0.017919928 0.034222566 -0.045594864 0.06630685 0.031323377 0.020227887 0.039529353 -0.0425625
0.014549505 0.026199637 0.041888405 -0.039864607 0.025418907 -0.040432982 0.0021785635 0.038074836
-0.035018694 -0.022485 0.009903195 0.04162819 0.039362952 -0.008339271 0.0769086 0.017974162
-0.009452395 -0.008330658 -0.010992184 0.011864438 -0.008427396 0.031239314 0.045044176 -0.072993204
-0.07574453 0.013854608 -0.034913726 -0.047061663 0.06648942 0.018874977 0.021642143 0.069622464
0.012096539 0.061355956 0.0035306513 -0.018960746 -0.048133064 -0.0028076952 0.056031764 0.044683523
-0.0060158 0.059385415 -0.049132027 0.0014458636 0.027246607 -0.022096083 -0.011489854 0.023051612
0.06846256 -0.013767699 0.03878992 0.0578114 0.06191796 0.053268425 -0.0005784035 0.07014096
0.026218267 0.013273744 0.022203527 0.009528097 -0.019717216 0.046122454 0.03199871 -0.035874736
-0.02924563 0.018866912 -0.0029271021 -0.05941289 -0.054282144 -0.0391277 0.002764687 -0.027480818
0.024382781 -0.07033343 0.04529915 0.005738793 0.014781117 -0.020390257 -0.023499716 -0.010087104
0.016672028 -0.07714917 0.052961983 -0.026326891 -0.04812537 0.009757671 0.019131524 0.041577354
-0.015268687 -0.01562649 -0.04455567 -0.03933768 -0.040923845 -0.0370975 -0.042180423 -0.07822795
0.016150922 0.02388382 -0.00022881478 0.046007253 0.03397701 -0.013576464 -0.06566926 0.0078966245
0.005267764 -0.029946435 0.052423947 0.07508093 0.046104554 -0.041597985 0.0017901446 0.005556643
0.0218947 -0.050897814 -0.07951537 -0.006926387 0.035199936 0.05163312 -0.02417982 0.014938608
-0.020717947 0.028633287 0.038946662 0.047626264 -0.06769164 -0.04360054 0.022696726 0.05970847
0.01751056 -0.02981661 0.032052252 0.0014595091 0.017757911 -0.034668036 0.009956212 0.032274295
-0.04367237 -0.044842124 0.035604045 -0.053532057 -0.015580896 -0.032562323 0.043882627 -0.038232155
0.050254732 -0.078512125 -0.063634396 -0.019327823 -0.052887037 -0.041893512 0.035535697 0.07271581
0.003778641 0.06550128 0.019628197 -0.005279467 0.041373312 0.044233594 0.074498236 -0.011735536
-0.050874103 0.040310077 0.07068489 0.056584053 0.061653372 -0.06269582 0.04015182 0.07896288
-0.051113658 0.020146042 -0.01399222 -0.019930266 0.030518558 0.017910345 0.036723427 0.04089888
0.007446997 0.005297136 -0.05147849 0.050757565 -0.060650654 -0.031165272 0.041598845 -0.054151736
-0.05724769 -0.05707722 -0.0700433 -0.02567584 -0.002725944 0.030492373 -0.010945794 0.061481375
0.03222186 0.0006382411 -0.062088158 0.0015760415 0.003575772 -0.018389469 0.06457143 0.029879453
-0.04172323 0.058378726 0.05283569 0.009020389 -0.028148482 -0.052945122 0.022675782 0.04112079
0.065275855 -0.007881972 -0.049963705 -0.023092186 0.05222016 -0.067151815 -0.0009020269 -0.05913402

output.bias f4 [4]
00000000: e0c6 723c 90e9 333d a096 d8bc 940e 2dbd
0.014817923 0.043923914 -0.026439011 -0.04225023
